checkpoints/cifar_net.pth (torch, 251604 bytes, 10 tensors)

conv1.weight f4 [6, 3, 5, 5]
00000000: f42f 143c 2721 6bba 4afd 913d 0e52 843d
00000010: 7c01 213d 40a2 db3d a640 023d 6c74 98bd
00000020: aa44 14bd 5da6 3ebc 392a 323d 387d b23d
00000030: 0980 d43d b679 223d a1af 43bd b0e0 873d
00000040: 60f5 c7bc 56c9 b6bd ed06 b7bd 7f9b b8bd
00000050: 2918 dabd 00a4 2dbd 557f 2bbd b56b b83d
00000060: aa9e bbbd 66f6 65bd a201 1fbd 7065 30bd
00000070: 93ca 853d 3b66 76bd d622 d93d 7eca 863d
00000080: 7315 dbbc 6daf e6bc 80ba 2ebd 351d c0bd
00000090: 382d e8bd 4958 b5bd c83f e1bb c9e7 87bd
000000a0: ce32 b9bd 78a6 df3d b2d5 903c 52b9 a3bd
000000b0: 5fe7 163d 4ff0 8bbd 4ef6 c53d ce36 6f3d
000000c0: c02e 6f3d c2ae d3bc f0a2 a13d 1d8a 66bd
000000d0: f5c1 21bd cb35 4dbc 204d 22bc 6940 8e3d
000000e0: da50 e53d 0892 723d 1d37 193d 1ad3 043d
000000f0: e81b de3d 73ae 8a3c 7d38 a13c 99d3 be3d
00000100: aa11 e63d b944 2d3d b1ff 02bd 7c5a dcbd
00000110: 87b1 e8bd a242 6dbd 86a2 2a3d 8104 82bc
00000120: d3d2 bebd 5a54 a93c 6952 673c 7d16 1bbd
00000130: 87f7 28bd 1395 553d 1f92 4abc 35c7 c83d
00000140: c178 d43d a8bf 91bd 5cdc 483d ed1c 25bd
00000150: ee5c c53d 9cd4 8bbc 6d53 94bd 0e4e 53bd
00000160: 65df 8b3d 496c 0bbd 8532 01bd 598d c13d
00000170: c4b7 b3bd 16f6 99bd 509e 6ebc be5d 7bbd
00000180: 1da9 913d 9889 a63d a508 a8bd 09c7 e73c
00000190: e1aa 03bd dfe3 4abc df08 843d 56a8 263c
000001a0: 41ad 5fbc bef0 86bd 8220 943d ed1b cd3b
000001b0: ab27 553d 737a 983c 6dc9 053d 29ef c83d
000001c0: 490f 6abd 6922 aebd bbe9 b2bd cf42 cc3d
000001d0: 67b5 433d 2883 f63c e313 d2bd cdc9 24bd
000001e0: 9450 8ebd ce02 37bd de56 edbc ad91 c43c
000001f0: daa7 d6bc b290 afbd 9de6 403c fbea 483a
00000200: 545f ae3d a34b 6ebc 4fb7 c83c 22f2 4abd
00000210: 4ac6 c63d 72ec d03d 8f43 d33d 3e4c d5bd
00000220: cef1 a93d 9862 dcbd 3178 b33d b6b1 5f3d
00000230: b4d9 c33c f80e bfbd 1b5b e03d 6487 47bd
00000240: ec62 98bd a9f3 88bd 39ab 033d 14f3 913d
00000250: 99bf 643d c296 99bd 3e07 e93d c37f 68bd
00000260: 5bf2 25bb 9dab c6bd 1e03 7a3d 05d0 e8bd
00000270: 1226 d3bb da7c b93d e1f7 c5bd cfca e63d
00000280: 60fe 1cbd 7fa1 a8bd 43dd dbbd 2595 103d
00000290: 72c4 8b3c cc88 a4bd ac2a 0f3d 5761 2f3d
000002a0: a5c2 c5bd 1913 10bd 1c93 a5bd 684a b8bb
000002b0: 5de5 d73d 79ce 913d d864 3fbd f2e5 cc3d
000002c0: b63d 3b3d 94c2 a3bd f13d 09bd e4f5 e93d
000002d0: ffeb d2bd 0af8 cc3d 5e6c b93d 1b7a f13c
000002e0: 9220 c7bd 8f7d 983d 17fb 2ebd db44 84bd
000002f0: 98fd c33d 55e1 d43c bc4a c9bd 4bbc 643d
00000300: 0e2c 1f3d 3841 863d 9b42 13bd 054e e43d
00000310: a696 78bd a9ba 73bd 8443 5d3d 6021 9c3d
00000320: 9d56 5c3d 55ed 4dbc c5cb b6bc a127 273d
00000330: 1dc5 a5bd f5f0 d7bd d042 c63d 4e3c 29bd
00000340: f47f d03d 7928 0bbc 54ed c43c d202 633d
00000350: 214c 80bd dc55 8bbd fc27 a63d 2ba5 24bd
00000360: 8400 c4bd 2fb5 58bc ad63 97bc 33fb e8bd
00000370: c7a9 93bb ebdd eabc bedb 2d3d b2d5 463d
00000380: bb8e 9cba 5732 843c 27b9 033d 89d8 203d
00000390: b45e 993b 56ff ddbd 4d25 d73d 303d d83d
000003a0: af59 d13d 63ff c7bd cbd4 8abd 2df3 8b3d
000003b0: 5cfc 743d 8bbf 0ebd da0a 08bd 45ac a1bd
000003c0: 2298 51bd 7040 5ebd b61d e3bd f3ca 263d
000003d0: 2885 8a3d 3f66 02bd ebac a2bd 0806 adbd
000003e0: 8e9b 95bd e698 abbd 7bc1 993d 89b8 bdbd
000003f0: 9e13 c9bd 8129 5e3d 6153 1cbd 22e3 85bd
0.009044636 -0.00089694787 0.07128389 0.06460963 0.039308056 0.10724306 0.031799935 -0.07444081
-0.036198296 -0.011636344 0.043497298 0.0871529 0.10375983 0.039666854 -0.047774915 0.066346526
-0.024408996 -0.089251205 -0.08936868 -0.090140335 -0.106491394 -0.04239273 -0.04186948 0.090049185
-0.09161122 -0.056143187 -0.038819917 -0.04306549 0.065327786 -0.06015609 0.106023476 0.06581591
-0.026743626 -0.028159821 -0.04265833 -0.09380571 -0.1133675 -0.0885473 -0.0068740584 -0.066360064
-0.09042893 0.10920423 0.017680023 -0.079943314 0.036841746 -0.068329446 0.096661195 0.058401875
0.058394194 -0.025840167 0.07892406 -0.05628406 -0.039491612 -0.012525032 -0.009906083 0.06945879
0.11197062 0.059221298 0.037406076 0.032427885 0.108451664 0.016928887 0.019680256 0.09317703
0.11233838 0.042301867 -0.031982128 -0.10759446 -0.11361986 -0.057924874 0.0416589 -0.015871288
-0.09317555 0.020670105 0.014118769 -0.037863243 -0.041251685 0.05214412 -0.01236394 0.09803621
0.103745945 -0.07116634 0.049038276 -0.04031079 0.096368656 -0.017069153 -0.07242475 -0.05158811
0.068297185 -0.034038816 -0.03154232 0.09450788 -0.08775285 -0.0751764 -0.014564112 -0.061368696
0.07112334 0.08131713 -0.08204774 0.02829315 -0.032145385 -0.01238343 0.064470045 0.01017197
-0.013652147 -0.06588887 0.07232763 0.0062594325 0.052039783 0.018613076 0.032662798 0.09811241
-0.057143483 -0.08502657 -0.08735987 0.0997368 0.04778042 0.030091837 -0.10257699 -0.040231515
-0.06948963 -0.04468041 -0.028972086 0.023995245 -0.026203085 -0.0857252 0.0117737325 0.00076644093
0.08514276 -0.0145444 0.02450147 -0.049547322 0.097057894 0.10201348 0.1031562 -0.10414933
0.08298074 -0.10760993 0.08763159 0.054612838 0.02390752 -0.09329027 0.10954877 -0.048713103
-0.07440743 -0.066870995 0.032145713 0.071264416 0.055846784 -0.07499458 0.113783345 -0.056762468
-0.0025321457 -0.097007014 0.06103813 -0.113678016 -0.0064437473 0.09057017 -0.0966642 0.112691514
-0.03832853 -0.08233928 -0.10735562 0.035298485 0.017061446 -0.080339044 0.034952804 0.04281744
-0.09656266 -0.035174463 -0.080846995 -0.0056241043 0.105417944 0.0711946 -0.04672703 0.10004796
0.04571315 -0.07996097 -0.033506338 0.11423853 -0.10298919 0.10008247 0.090538725 0.02947717
-0.09723009 0.074458234 -0.042719927 -0.06458446 0.095698535 0.025986353 -0.098287076 0.055843633
0.038860373 0.06555408 -0.03595219 0.111476935 -0.060690545 -0.059504185 0.054019466 0.07623553
0.05379354 -0.012568791 -0.022313962 0.040809277 -0.08094237 -0.10544006 0.09680712 -0.041317277
0.10180655 -0.008493536 0.024038948 0.05542261 -0.062645204 -0.06803486 0.08113095 -0.04019658
-0.09570411 -0.013226791 -0.018480146 -0.113760374 -0.004506323 -0.028670272 0.04244589 0.04854364
-0.0011944392 0.016137285 0.032158997 0.039269004 0.004680479 -0.10839717 0.105051614 0.105585456
0.10222184 -0.09765508 -0.06778868 0.068334915 0.05981098 -0.03485064 -0.033213474 -0.07894186
-0.051170476 -0.05426067 -0.11089651 0.04072089 0.06763679 -0.03183579 -0.07943138 -0.08448416
-0.0730506 -0.083787724 0.075076066 -0.09263713 -0.09818195 0.0542388 -0.038165454 -0.06537463

conv1.bias f4 [6]
00000000: ee5b c2bb 15c1 b8bc b8fb c53d 4d90 7cbc
00000010: 773d 803c 57a7 67bd
-0.005931369 -0.022553006 0.09667152 -0.015415263 0.015654309 -0.056556072

conv2.weight f4 [16, 6, 5, 5]
00000000: a620 50bd 33e7 5c3d 6f5c a2bc e220 04bd
00000010: 7e49 4e3d f7c5 8c3d e653 bcbc 50ec 463d
00000020: e5e2 8b3d 321f aabb 9fbc c8bc 01ed 82bc
00000030: 522e 14bd af1b 6d3d 4ee1 8fbc ba58 90bd
00000040: 7ab8 8bbd 2e1c 433d 4384 9dbd bead 74bc
00000050: 8097 90bd 0963 b8bc b2bb 01bd fb43 8f3d
00000060: 633c 83bb 0a30 803c c2a2 1bbd 3f8e 0a3d
00000070: 85d0 9d3c 0b74 cf3b d3ba 8d3a 4316 a4bc
00000080: 5f56 903c 1b16 1a3d adaa 983d e85b b13c
00000090: 9896 3a3d 85cb fcba cb6f 793c d7e4 4abd
000000a0: 9936 81bd e861 b93c 30ab 663d 94c5 87bd
000000b0: f060 98bd 845d 99bd 983f 043d dfc5 5fbd
000000c0: 36f2 163d 1d5f 9c3b cb26 acbc 19cd 91bd
000000d0: 89a6 8dbc 0ce4 73bd 4328 7cbd 699b 2dbd
000000e0: b305 76bd 87fe 2f3d 0bb9 493d a712 99bc
000000f0: ee37 c73c 478b 9ebd 5641 49bd 8c30 a2bc
00000100: 6109 3ebd ce2f a33d dad6 50bd bdb2 95bd
00000110: f02e 393d b7de 1ebc 327f 07bd 8071 b43c
00000120: a9d8 9cbd 47ad 853d 9f42 9b3d a281 903d
00000130: 6af3 9bbd ec37 21bd 2b7c 473d f5f7 883c
00000140: 6161 f93c 57a8 873d d13d c13c 3981 6c3d
00000150: 8f7e 203d 33d7 323d a49a 893d 493f 723d
00000160: b1d7 9d3d a185 4b39 9eee 4e3d e935 323d
00000170: 62a7 7cbd 4e1d 333c d38e c73c 22d9 603c
00000180: 2688 6e3c 9b54 393d 3606 7f3c 3ef6 ffbc
00000190: 89f6 d73c e31f 98bc 05be 163d 3478 a1bb
000001a0: 477d d3bc d65b a2bd 8991 0cbc 8d66 a4bd
000001b0: d3ea 4c3d ca66 05bd 4a46 a53d 4b21 833d
000001c0: d5be 11bc 1df5 70bd f787 bdbc 595f 673d
000001d0: 8674 8b3d 7e7f 1a3d a422 1c3d 407f 46bd
000001e0: 7a9f cd3c ba25 64bd 8b81 7f3d 23d7 16bd
000001f0: 12ae 453d 486e 823c f520 0a3c de81 8bbc
00000200: 9a64 843d cff5 96bd f415 503d 8f95 e13c
00000210: 6307 543a fb83 803d c72e 8cbd 227d 7e3d
00000220: 4e14 d73c a002 8f3d e829 8fbd 92ad 52bd
00000230: 9c11 c83c da36 0a3d 5bc6 6a3d fa0e 263c
00000240: 19d0 48bc d282 2f3d 6b8c 933c b788 013d
00000250: 70a2 21bd c976 753d f045 ff3c 85e4 83bd
00000260: bf6c f73c 82c8 773d d648 c1bb a06a 973d
00000270: 62d1 173d 4759 1dbd 7ba5 0cbd 8f2f a23d
00000280: e68e 48bc be8f 81bd 2581 8c3c 87ac 513d
00000290: f305 a43c b4be 3ebd a046 163c b566 1c3d
000002a0: 7c73 a4bd 9e92 98bd 3bf8 bd3c 6c39 933c
000002b0: fa91 1ebd f368 84bd d446 23bc 0194 2e3c
000002c0: 6808 a33c a866 013d be4e 9ebd c50c 1b3d
000002d0: 1050 d3bc b3a6 b6bc 1dee debc 67bb 9e3c
000002e0: b60a 9a3d 7788 08bc beca 68bd 2f5e 93bc
000002f0: fccf 67bd e6d0 723d a001 02bc 0ebd 033d
00000300: 6346 8fbd cf7c 273d 135c 94bb efd0 02bd
00000310: fff7 223d 5ffe 433c f265 3c3d c8c5 b4bc
00000320: 5287 c1bc 401e 903d 5c12 3ebd 8d38 61bd
00000330: 0fe5 67bc 8438 da3c 9110 36bc 600c c1bc
00000340: 1df7 5e3c 677c d0bc be6f 91bd b772 903d
00000350: adf1 523d 4b6a 1dbd cbd6 a33d 0983 603d
00000360: e352 433d 4c7c c93b 6eca 993d fffd 7f3d
00000370: cb16 4c3d f0e7 17bb 597a 45bd 94a4 93bd
00000380: 6d6d 383d 08dc 89bd 6991 99bd 26b8 083d
00000390: 7bea 49bd f092 88bd 10a4 9fbd fdf3 05bd
000003a0: cc66 923d 4951 14bd 388f 15bd 156f a53d
000003b0: d77e 0c3b d4f8 a6bd d66d e9bb a036 deba
000003c0: 917a a4bb 6b3a 15bd bc2c b1bc 4592 38bd
000003d0: 5280 8ebd 800e 8d3d ae98 a3bd 0bdb 4fbc
000003e0: f78f e9bc b598 1cbd ff32 953c 9553 2ebb
000003f0: 496f 883d a4ff 5cbd 08ac f6bc 2ab8 93bc
-0.050812386 0.053931426 -0.019819466 -0.032257922 0.050363056 0.06873696 -0.022989225 0.04856521
0.06830386 -0.005191707 -0.024504004 -0.015982153 -0.036176987 0.05788773 -0.017563488 -0.07048173
-0.068222955 0.047634296 -0.076912425 -0.0149340015 -0.07060146 -0.022508161 -0.03167314 0.06995388
-0.0040050014 0.015647907 -0.037997015 0.033827063 0.019264469 0.006330972 0.0010813124 -0.020030146
0.01761931 0.037618738 0.07454429 0.02165027 0.045553774 -0.0019286728 0.015224407 -0.049534645
-0.06309242 0.022629693 0.0563156 -0.06629482 -0.07440364 -0.0748854 0.03228721 -0.054632064
0.036852084 0.0047720806 -0.021014592 -0.071191974 -0.017291324 -0.059543654 -0.061561834 -0.04238454
-0.06006403 0.042967346 0.049248736 -0.018685652 0.024318662 -0.07741409 -0.049134575 -0.01979854
-0.046395663 0.079681024 -0.05098615 -0.07309482 0.04521078 -0.009696654 -0.033080287 0.022026777
-0.07658512 0.06527191 0.07581066 0.070559755 -0.07614787 -0.039359972 0.0487024 0.016719798
0.030441942 0.06623905 0.023589047 0.057740424 0.039183196 0.04366226 0.067189485 0.059142385
0.077071555 0.00019409369 0.05052053 0.043508444 -0.061683066 0.01093228 0.024360096 0.0137236435
0.0145588275 0.0452467 0.015565446 -0.031245347 0.026362674 -0.018569892 0.03680231 -0.0049276594
-0.025816573 -0.079276726 -0.00857962 -0.080273725 0.050028633 -0.03256873 0.08070047 0.064028345
-0.008895596 -0.05882751 -0.023136122 0.056487415 0.068093345 0.037719242 0.038118973 -0.0484612
0.025100458 -0.05570004 0.0623794 -0.036826264 0.04826171 0.015921727 0.008430709 -0.017029699
0.06464501 -0.07371103 0.050802186 0.027537135 0.0008088259 0.06275173 -0.068448596 0.062131055
0.0262548 0.069829226 -0.06990415 -0.05143506 0.02442246 0.033743717 0.057318073 0.010135407
-0.012256646 0.04284937 0.018011292 0.031624522 -0.039461553 0.059927735 0.031161278 -0.06440071
0.030203221 0.060493954 -0.0058985753 0.07393384 0.037064917 -0.03841522 -0.034337502 0.07919227
-0.012241101 -0.06326245 0.017151425 0.051189926 0.020022368 -0.046568587 0.009172112 0.038183887
-0.080298394 -0.0744984 0.023189655 0.017971717 -0.038713433 -0.0646533 -0.009965617 0.010655404
0.01990147 0.03159204 -0.07729863 0.037853975 -0.025795013 -0.022296285 -0.02721315 0.01937647
0.07521574 -0.008333317 -0.056833975 -0.017989246 -0.056594834 0.059281252 -0.007934958 0.03216272
-0.06995847 0.04089051 -0.0045275777 -0.031937536 0.03978729 0.011962502 0.04599566 -0.022066966
-0.023624096 0.0703702 -0.046404228 -0.05498557 -0.014153733 0.026638277 -0.011112348 -0.023565471
0.013608721 -0.025449945 -0.07101391 0.0705313 0.05150001 -0.038431447 0.07999953 0.054812465
0.04768647 0.0061488505 0.075093135 0.06249809 0.049826425 -0.0023179017 -0.048212383 -0.07209125
0.04502623 -0.06731421 -0.07498438 0.033378743 -0.049295884 -0.06668651 -0.07794964 -0.03270339
0.07148513 -0.036210332 -0.036513537 0.08077828 0.0021437907 -0.08152929 -0.007123689 -0.0016953535
-0.005019494 -0.036432665 -0.021627776 -0.04506137 -0.06958069 0.06887531 -0.07988106 -0.012686501
-0.02851103 -0.03823157 0.018212793 -0.0026600112 0.06661851 -0.053954735 -0.030111328 -0.018032152

conv2.bias f4 [16]
00000000: 7f94 9ebd c3c1 e0bc 6505 903b 3e8f 883d
00000010: 4aec 14bd 6a35 89bd 7f44 98bd 4f54 693d
00000020: 455f 8bbd 8a5e 4bbd a956 423d 525b 493d
00000030: 3436 043d 0c2f 76bd 9c42 db3c 35f3 21bc
-0.07743167 -0.027436143 0.0043951743 0.06667946 -0.036358155 -0.06699641 -0.074349396 0.05696517
-0.068052806 -0.049650706 0.047445927 0.049159355 0.032278255 -0.06010346 0.02676516 -0.009884645

fc1.weight f4 [120, 400]
00000000: c7a9 fd3c 2aa0 3fbd 83aa e6bc cd12 5ebc
00000010: 9acb f43c 70bf 0a3d 404a 703c 8028 023d
00000020: b07a 293d 0aa0 803c f34e 94bc f086 f5bc
00000030: 1068 b53c 583b 183d 4316 3f3d 306e 443d
00000040: b30b 693b 9525 483d a710 40bd a722 df3c
00000050: 180d 1dbd cd71 813c 336b 92ba 5f9c 41bd
00000060: 3f68 1cbd 6729 99ba 603f 7cbc d75f 263d
00000070: 8ac4 953c a74b 373c 430d 3a3d 0700 0abc
00000080: 1755 153d f7a3 a53c 23af 84bc b515 443d
00000090: 4009 f8bb 8f23 383d 6f16 48bd ab6a 493d
000000a0: baae 50bc 2734 f1bb 7a62 2b3c 0d4d 253c
000000b0: 7b67 32bd 33b1 8a3a 4022 d13b 8dec 48bd
000000c0: 006d 8abb c0ea c53b 7dc7 153d 9d92 8b3c
000000d0: 3a53 9b3c ad8e 2f3c b31b ee3b 6741 6f3b
000000e0: 688f 48bd 3a65 523c 60c1 dbbc 4d2e c43c
000000f0: 738d 11bd 6d25 bc3c c897 1c3d f54f 3abd
00000100: 4dcf af3c c325 2dbd 7007 c7bc 3a4c c9bc
00000110: b3b8 243d cd9f e53a bdb9 4abd 53a5 b8bc
00000120: c77b a5bc 4586 003d 774e ed3c c544 0b3d
00000130: 5ac2 0ebc 2752 f3bb bad0 53bc aa45 883c
00000140: 50f1 f03c 8008 833b c764 d1bc 2756 bf3b
00000150: 6722 cbb9 474c b43c fa13 2c3c 4b6f 223d
00000160: 9a19 fc39 3869 123d da48 a43b 9af9 2fbc
00000170: b76f f3bc 002f 5ebc 5a17 00bd 075c 83bc
00000180: 20a4 613c 40fc 3e3c 00b0 0639 65b6 2fbd
00000190: 00eb 04bb c352 223d 67b9 3e3b d732 cdbc
000001a0: daca 063c da7f febb 3a30 03bc cdf9 9a3c
000001b0: 2a8a 24bd 5002 37bd 204b 8cbc 1d42 cc3c
000001c0: da78 9cbb ef2c 22bd a03c 00bc b3cc 173c
000001d0: 1313 203d 7af3 173c 23e6 c1bc 879f d63c
000001e0: 8013 2bbc fafc 8c3c 20f9 ffbc 10b5 31bd
000001f0: 6f8f 03bd d3a6 87bc 4dad 2d3b 2ab5 063d
00000200: 30b7 d8bc bd43 b53c eb87 0e3d c349 ff3c
00000210: 4abe a3bc 53da 31bc 0002 373a 9a73 483d
00000220: a810 173d e0ba 213d dd26 933c af6c 4cbd
00000230: b5b7 433d 6750 413a 42a8 0b3d 8085 24bc
00000240: 003a 2c3c 90f9 81bc 0dde d4bb fab4 80bc
00000250: 1f78 2bbd 1ae0 12bb ea92 f03c 33a3 a93a
00000260: ead0 c93c 23e0 443d f567 05bd 977e b0bc
00000270: 9ab2 0cbd faad 813c d8ba 18bd cda9 b03a
00000280: 053a 4abd 0091 c5bc 28c9 40bd 6a4d 163d
00000290: b358 68bc ed10 b9bc e7a1 673b dbb2 453d
000002a0: 6791 f43a 9246 143d ca74 9a3c da18 2dbd
000002b0: ad07 34bc 975c 413d b3a7 2e3b eaa4 dcbc
000002c0: 581c 283d 6746 c638 33f3 0439 4d6e 063c
000002d0: 00c5 97ba 7d1e 4b3d 4bce 233d 53c2 a43c
000002e0: 3a68 b3bc 537e d03c f33b 6f3c b36e ac3c
000002f0: 3374 b2ba a04f a43c b07c 8d3c e35a efbc
00000300: 3387 f43b a0a5 5b3c 9a64 17bd 955f 403d
00000310: eabb 233d bafc 7e3c 6758 d6bb 605f 013c
00000320: cd3d 3dbc 7364 28bc 4de8 263b 0351 fe3c
00000330: 73d7 7f3c e26c 473d 934b 0f3c 3da5 ffbc
00000340: 4d48 2abc f590 18bd af5c 103d 8ae5 f13c
00000350: 9a3d e53c 873d 3bbd bbd5 1abd fa50 16bc
00000360: f33b 06bd 1aec 4bbb 852c 3cbd 20ec 073c
00000370: aafe 2bbd 5fa5 15bd 333f 99bc 4dda a0bc
00000380: ea07 f53c 37b1 85bc e701 b53b 1d05 debc
00000390: e740 663c b3b2 c0bb a79f 1dbd ed69 133c
000003a0: 7afd 1a3d 907a b83c fdb0 f0bc cfb0 3c3d
000003b0: 4b77 1ebd ea48 fbbc 4d33 973c 47dc 4abd
000003c0: 4fca 2a3d eaa0 933c 05c8 1bbd a3e4 8e3c
000003d0: f20e 48bd ff28 1a3d 08ca 393d 352d 033d
000003e0: c584 2b3d f2a8 07bd 9fad 21bd 5509 44bd
000003f0: 6042 113c ba16 e73c c07a a23b 10d1 203d
0.030964745 -0.046783604 -0.028157478 -0.013554287 0.029882241 0.033873975 0.01466614 0.031776905
0.04137677 0.015701313 -0.018104052 -0.02997157 0.022144347 0.03716597 0.04665209 0.047956645
0.0035559952 0.048863966 -0.04689088 0.027238203 -0.038342565 0.015801335 -0.0011170864 -0.047268268
-0.038185354 -0.0011685312 -0.015395969 0.040618744 0.018282194 0.0111874705 0.045422804 -0.008422858
0.0364581 0.020219786 -0.016196793 0.047872264 -0.007569462 0.044955786 -0.04884952 0.049173992
-0.012736971 -0.0073609534 0.01046049 0.010089171 -0.043555718 0.0010581374 0.0063822567 -0.049053717
-0.0042244196 0.0060399473 0.0365672 0.017037684 0.018960584 0.010715169 0.0072664856 0.0036507489
-0.048964888 0.012841517 -0.026825607 0.02394786 -0.035535287 0.022967065 0.038230687 -0.04548641
0.021461153 -0.04227234 -0.024295539 -0.02457248 0.040215205 0.0017518938 -0.04949354 -0.02253977
-0.020200623 0.03137805 0.028968079 0.03400113 -0.008713329 -0.007425565 -0.012928182 0.01663478
0.029411942 0.003998816 -0.02556075 0.0058391276 -0.0003874481 0.022009028 0.01050281 0.03965692
0.0004808426 0.035744876 0.0050135674 -0.010740662 -0.029716356 -0.01356101 -0.03127227 -0.016035093
0.013772041 0.011656821 0.00012844801 -0.042898554 -0.0020281672 0.03962971 0.0029102208 -0.025048656
0.0082270745 -0.007766706 -0.008007104 0.018917942 -0.040170826 -0.04467994 -0.017125666 0.024933869
-0.004775149 -0.039593633 -0.007826954 0.009265113 0.03908069 0.009274358 -0.023669308 0.026199115
-0.010441661 0.017210472 -0.031246722 -0.043385565 -0.03211921 -0.01655904 0.0026501 0.032887615
-0.026454538 0.022127027 0.03479759 0.031163102 -0.019988198 -0.010855275 0.0006981194 0.04893837
0.03688112 0.03948486 0.017962867 -0.049908336 0.04778262 0.00073743466 0.03409601 -0.0100415945
0.010511875 -0.015866071 -0.006496197 -0.015711296 -0.041862603 -0.0022411407 0.02936693 0.0012942314
0.02463575 0.048065316 -0.032569844 -0.021544738 -0.034350015 0.015830029 -0.037287563 0.0013478339
-0.049371738 -0.024116993 -0.047066838 0.03669492 -0.014181304 -0.022591079 0.0035344304 0.048266273
0.0018659056 0.036200114 0.018854517 -0.04226003 -0.010988158 0.04720744 0.002665025 -0.026934106
0.041042656 9.454489e-05 0.000126791 0.008205009 -0.0011579096 0.049589623 0.03999166 0.020112192
-0.021900285 0.025450861 0.014601695 0.02104888 -0.0013614952 0.0200575 0.01727137 -0.029218143
0.007462406 0.013406187 -0.036961176 0.046966154 0.03997413 0.015563184 -0.0065413 0.007896274
-0.011550379 -0.010277855 0.0025468052 0.031044489 0.015615332 0.048687823 0.008746046 -0.031206721
-0.010393214 -0.037247617 0.03524464 0.029528398 0.027983475 -0.045712974 -0.037801486 -0.00917458
-0.032772016 -0.003111607 -0.045940895 0.008296043 -0.041990913 -0.036534663 -0.018706894 -0.019635344
0.029911 -0.016319854 0.0055239084 -0.027102048 0.01405356 -0.0058806776 -0.038482334 0.008997423
0.03783939 0.02251938 -0.02938127 0.046067055 -0.038687985 -0.030674417 0.01845708 -0.04952648
0.041696843 0.018021066 -0.03803255 0.017443007 -0.048842378 0.037636753 0.045358688 0.032025535
0.041874666 -0.033120103 -0.03947222 -0.047860462 0.008865923 0.028209079 0.0049584806 0.039261878

fc1.bias f4 [120]
00000000: 275e d7bc 155a 29bd 176f 83bc ed17 1cbc
00000010: 481d 343d 606e c53c d7f5 2abd ed38 c53c
00000020: 4f80 35bd 9a55 903a 5d0e 00bd c04c 2abc
00000030: f0e4 9a3c 901b 0a3d b8ba 103d 57b7 443d
00000040: 230e cd3c 40ee 8cbc a7a2 443d e719 a7bb
00000050: c2b5 1e3d 9aab 6c3c d55b 3b3d e0dc cdbc
00000060: 508d c43c 1ab7 87bc 8351 e8bc cdef f4bb
00000070: d7c2 90bc 5a0e 933c 8008 973c 8009 43bd
00000080: f3c9 aa3c 97a7 b73c 5da9 ec3c a352 253d
00000090: e0b9 1c3d aa49 15bd 8da8 5bbc 809f 5abb
000000a0: 90ba 3a3d dab3 e33b 1d58 9a3c 1a82 70bc
000000b0: ea5f cabc 3af6 b93c 9ae4 46bd 4d98 fb3c
000000c0: 85d0 04bd 8f39 06bd 5a5f 3e3d 20d2 e33c
000000d0: 382c 36bd 8096 2cbd e782 88bc 3b8d 12bd
000000e0: c0f9 85bb eb5c 1ebd 7a13 f9bc da2a a13b
000000f0: 0006 f93c 9013 393d c581 2e3d 6734 d2bb
00000100: c7d2 7d3c c311 1ebd 5de3 87bc 0f83 283d
00000110: 40cd 82bc 67ba eab9 e086 babc 5ad9 293d
00000120: 4d15 c7bc 702c d1bc ba65 123c 3384 80ba
00000130: 2aa9 a33c 33d0 193c 0728 0bbc 9309 0b3d
00000140: 1ad7 1f3b e2c7 3ebd 4aa0 da3c 03c6 edbc
00000150: bd8b d4bc 4db9 82bc b3ec 0abb bd48 4c3d
00000160: cdd5 023c 2089 f5bc ad65 fb3c 3349 bdbb
00000170: 53f5 22bd 237e b5bc d339 a63c f78b fc3c
00000180: eb74 083d 43bc f2bc 5776 41bd 7889 1f3d
00000190: 0a04 283d f04e 04bd 10c3 a23c b32c 4abc
000001a0: c7bd ee3c 3a5e b83c 22b0 0f3d 15ac 293d
000001b0: 80cb a63c a8e7 193d ed4e 313d 40f4 c03c
000001c0: b28a 4cbd 2bf0 0c3d c729 183c ef9b 31bd
000001d0: 5ac2 3c3c 6dde 6bbc c7f5 063d eaf3 46bd
-0.026290013 -0.041345675 -0.016044183 -0.009527189 0.043973237 0.024100482 -0.041738357 0.024074996
-0.044311818 0.0011011839 -0.031263698 -0.010394275 0.018907994 0.033717692 0.03533432 0.04802641
0.025031155 -0.01720345 0.04800668 -0.0050995233 0.038747557 0.01444521 0.045741875 -0.025129735
0.023993164 -0.016566802 -0.02835918 -0.0074748755 -0.017671032 0.01795118 0.01843667 -0.04761648
0.02084825 0.02241878 0.028889352 0.04036201 0.0382632 -0.036447205 -0.013406885 -0.003335923
0.045588076 0.00694893 0.018840844 -0.014679456 -0.024703939 0.022700418 -0.048557855 0.030712271
-0.032425422 -0.032769736 0.046477653 0.027810156 -0.044475764 -0.042135715 -0.016663982 -0.03577922
-0.0040886104 -0.038662832 -0.030404795 0.0049184384 0.030398369 0.045184672 0.042604227 -0.0064149383
0.015492148 -0.038591158 -0.016587907 0.041140612 -0.015967011 -0.0004477084 -0.022769392 0.04146705
-0.02430215 -0.025533885 0.008935386 -0.0009805023 0.019978125 0.0093880175 -0.00849343 0.033944678
0.0024389685 -0.04657734 0.02668776 -0.029025083 -0.025945539 -0.015957499 -0.0021198213 0.049874056
0.007985544 -0.029972613 0.030688131 -0.0057765483 -0.03978474 -0.022154873 0.020291245 0.03082846
0.033314627 -0.029630786 -0.047232 0.03894946 0.041019477 -0.032301843 0.019868404 -0.012339759
0.029143227 0.022505868 0.035080083 0.041423876 0.020360708 0.03757444 0.04328816 0.023553967
-0.049936958 0.03440873 0.009287304 -0.0433616 0.011520946 -0.014396292 0.032949235 -0.04857246

fc2.weight f4 [84, 120]
00000000: 2ed4 a73d c583 b3bd f28d 47bd a5ef bcbc
00000010: 16cc 033d 085a 693d 27c4 2d3c 3229 06bd
00000020: 53f6 823c 7fc2 48bc 7fce 84bd 7139 a2bc
00000030: ea37 853d 3295 173d 7fb4 94bc 754b c5bc
00000040: a799 eeba 48eb 69bd c13e 63bc ea07 7cbd
00000050: b03a a4bd 0ef4 1e3d 1e88 7d3c 8c67 c0bc
00000060: 5b0c 563b f677 c83b 8fd5 00bd 2fbb 773d
00000070: afb1 6e3d 3f8f ff3c de2d 813d eab0 06bc
00000080: f993 ddba e83a 6dbd 0c01 b63d 3d9d 3a3d
00000090: 47b8 7fbd 52d7 dabc 852f dfbc 40c5 06bd
000000a0: b248 1ebd 62e8 ad3d 047c 0a3d 0a3a 0e3d
000000b0: 492d a43d 27e2 b63d 3b79 58bd 753d 143d
000000c0: 3326 8c3c 686c b5bb 57ff 7dbd 9ace b3bd
000000d0: e1bc 793d 35bc 8a3d bf13 59bb f399 4abd
000000e0: a64e b4bd be2f 22bc a561 42bd c95e 443d
000000f0: 424a adbd a2cd e4bb 9346 5dbd e46d fb3c
00000100: 7518 b1bb 54ec 2fbd 9e93 16bd 5d81 903d
00000110: 879d 893d b281 90bd a2d9 97bd df33 97bc
00000120: 95c2 9cbc d9d1 0dbd 475c 8a3d 9344 4bbd
00000130: f7f6 b2bd 92f4 f7bc 230e 33bd bc8e 643c
00000140: 70d9 4e3d 7e34 3f3d ca30 c4bb fd54 f0bc
00000150: 0293 b3bd 029d 20bd 170f 433d 2f7d 3dbd
00000160: be6b 113d b197 c43c 21b3 b83c 805f 2a3d
00000170: 5c48 aa3d cff5 85bd 33ed 14bd defe 8ebd
00000180: 2ca6 a43c 0784 80bc 314d 883c 1929 44bd
00000190: ab4d a03d 6d5e 8c3d 8953 793d 73ef 8a3d
000001a0: 0a12 8ebd 882b 993d 1289 6d3b 3d4a 22bd
000001b0: 6322 b73d f39b e1bc 6585 2d3b b728 863c
000001c0: 3e35 86bd bf41 e8bb 1d61 21bc 49c5 74bc
000001d0: 8087 a43c 5e51 6f3c bf75 2c3d 8df2 ad3d
000001e0: ed8d b53d 7336 c13b 5fae 26bd 8318 d4bc
000001f0: bf18 6fbd b703 243d 2e94 9abd cd29 663d
00000200: 8dce b13c b48c 5d3d 48dd 57bd c9ad 9cbd
00000210: b708 763c 8e78 5e3b 9ad8 f0bc 8c98 b6bd
00000220: 2580 38bd 4222 8e3c dd1d b23d b37c 9c3b
00000230: a80d 5dbd aa5b b4bc 8207 89bd b3fd 113d
00000240: 2f0f 24bc 80c0 173c 865b 103d db79 b33d
00000250: bee0 d8bc 6d4f 72bd 89eb 9cbd 4d6c 90bc
00000260: 6c43 133c 3754 febc b8b8 a2bd e035 92bd
00000270: 9c1a 02bd 866f a53d c24b 86bd 743e 3b3d
00000280: cbc4 adbc 4bcc 93bd f3da 44bc a8a6 f73c
00000290: c4ba 4ebd aead 213d 122c 07bd 65fe 4cba
000002a0: 7872 a03d c694 023d 391b 6b3d 5a20 a4bd
000002b0: d99f 203d 50e0 363d 51c1 073c 2991 833d
000002c0: 9380 a1bd b11a f4bc ba41 7ebd 6e9b 493d
000002d0: fa07 1b3c cb20 14bd dfd3 92bc 7d8f b3bd
000002e0: 2ad7 99bd 5073 39bb c1ab 8e3d f038 b3bd
000002f0: 70c2 593d e5f9 053d 371b 903b f7c8 21bd
00000300: 6641 4dbc 4ef8 15bd ece7 fd3c c6d1 3d3d
00000310: ce0a c83c 3381 b9bd d2ef a1bc 0c17 8c3c
00000320: 9a13 a8bd 747e be3c 381b 47bd ec30 cd3c
00000330: 25a0 a53d 074d 8ebb 2624 503d 5f74 313d
00000340: 974d 333d a5e7 8bbd ace3 ad3d d7c1 66bd
00000350: 8129 2e3d c0f4 733d d8cc 0c3d b725 4d3d
00000360: 313f 893d f11f a33c 1733 a8bd 94f7 bd3c
00000370: f60d 633b a65b 83bd c39e 3bbd d234 8d3c
00000380: d31d 6ebd 8f2d 4bbc a2cf 45bd 0294 3a3c
00000390: afda 79bd 4e6c b13c 1573 203c bc5a 92bd
000003a0: 8502 87bd 2c30 1abc 3f0c 98bc dff6 173d
000003b0: 4773 5f3d 0d3f 99bd af10 9abd f89e 7fbb
000003c0: 012c 4d3d 88ae e6bc 5939 81bd fb99 f03c
000003d0: 8dcf babd 730a 893b cd13 313c 8b5f b23d
000003e0: 9993 a8bd 95de 65bc 3227 aebd 367b 9a3c
000003f0: 9d1e 1ebd 1aaf db3c 9910 213d 63bf 5bbd
0.08194767 -0.087653674 -0.048719354 -0.02306349 0.032177053 0.056970626 0.010605848 -0.03275413
0.015986597 -0.012253403 -0.064846985 -0.01980278 0.065048054 0.037007518 -0.018152473 -0.024083832
-0.0018203751 -0.057109147 -0.013869942 -0.061530985 -0.08019006 0.038806967 0.015474347 -0.023486875
0.0032661173 0.006117816 -0.031453665 0.060481247 0.05827492 0.031196235 0.063075766 -0.008220891
-0.0016905061 -0.057917506 0.088869184 0.04556011 -0.0624316 -0.026714 -0.027244339 -0.032902956
-0.038643546 0.08491589 0.033809677 0.03472332 0.0801645 0.08929854 -0.05284999 0.036191422
0.017108059 -0.0055366047 -0.06201109 -0.087796405 0.060971145 0.06774179 -0.0033123342 -0.049463224
-0.088040635 -0.009899078 -0.047456402 0.047941957 -0.08461429 -0.006982521 -0.054022383 0.030692048
-0.005404527 -0.04294999 -0.036761872 0.07055924 0.06719499 -0.070559874 -0.07414557 -0.018457351
-0.019135753 -0.034623954 0.06755882 -0.049625944 -0.08738511 -0.030267987 -0.043714654 0.013950046
0.050500333 0.04668092 -0.0059872614 -0.0293374 -0.08768274 -0.039212234 0.047621813 -0.046261963
0.03550314 0.023998113 0.022546353 0.041594982 0.08314583 -0.06541025 -0.036359023 -0.06982206
0.020098768 -0.015687956 0.01663837 -0.047890756 0.07827314 0.06853948 0.06087068 0.067839526
-0.069370344 0.07479006 0.003624503 -0.03962158 0.089421056 -0.027540183 0.0026477214 0.016376836
-0.06553124 -0.0070879157 -0.009849814 -0.014939615 0.020084143 0.014606802 0.04210448 0.084935285
0.08864961 0.0058963834 -0.040693637 -0.025890594 -0.05837321 0.040042605 -0.07547794 0.056192208
0.021704936 0.054089263 -0.052701265 -0.076503344 0.015016726 0.0033946368 -0.029400159 -0.08915815
-0.045044083 0.01735032 0.08697102 0.0047756075 -0.0539681 -0.022016365 -0.06690885 0.035642337
-0.010013386 0.009262204 0.035243534 0.087634765 -0.026474353 -0.059157778 -0.07662112 -0.017629767
0.008988243 -0.031046016 -0.079453886 -0.07139182 -0.031763658 0.08077912 -0.065574184 0.045713857
-0.021212002 -0.072167 -0.012015092 0.030230835 -0.050471082 0.039472274 -0.033001013 -0.000781989
0.07834333 0.031880163 0.05739901 -0.08013983 0.039214943 0.044647515 0.008285836 0.064241715
-0.07885852 -0.029797884 -0.0620744 0.049220495 0.009462351 -0.036164086 -0.017923294 -0.087676026
-0.075117424 -0.0028297491 0.06966353 -0.08751094 0.053163946 0.03270902 0.0043977755 -0.039498296
-0.012527799 -0.036613755 0.030994378 0.046342634 0.024419215 -0.09057846 -0.019767676 0.017100833
-0.08206864 0.023253657 -0.048609942 0.025047742 0.08087186 -0.0043426785 0.050815724 0.04332387
0.043775167 -0.06831292 0.084906906 -0.056337204 0.04252005 0.059559584 0.03437504 0.050084796
0.06701506 0.019912692 -0.082128696 0.023189344 0.0034645773 -0.06413965 -0.045805704 0.0172371
-0.05813391 -0.012400999 -0.048293717 0.011387827 -0.06099957 0.021658089 0.009793063 -0.071462125
-0.065922774 -0.009410899 -0.018560527 0.03710067 0.054553296 -0.07482729 -0.075227134 -0.0039004665
0.050090794 -0.028159395 -0.06309766 0.029370299 -0.091216184 0.004182154 0.0108079435 0.087096296
-0.08231277 -0.0140301185 -0.0850357 0.01885758 -0.038603414 0.026816893 0.03932247 -0.053649317

fc2.bias f4 [84]
00000000: 08ec aa3d bb28 2bbd e58a 93bd af33 63bd
00000010: 9148 a2bd a823 d63c 7b07 673d 461c b03d
00000020: 5d90 c73c dfeb 8a3d 9bd6 1b3d 60a0 b13d
00000030: a45e 14bc 121c e23c 3a0a a8bd 88c4 f4bc
00000040: 263c 8a3d ff2f 3bbd d54b 84bc eaec 93bd
00000050: a709 68bc 59f7 b5bd d9c9 abbd 08b7 e5bc
00000060: 9616 8bbd e220 6b3d d104 a6bd 1523 6e3d
00000070: 96ea 8dbd 172b 543c db9e 0bbd e995 2bbd
00000080: e412 a83a 6f77 ba3c dce9 97bd e0dd afbd
00000090: 1c3a 80bd fa29 0f3d 1c77 933d c09e 543c
000000a0: 61f7 a8bd 70f2 8eba 8fc2 553d 6b50 e03c
000000b0: 0d2f 6d3d 6cde 3b3d f824 a7bd 1b79 9ebd
000000c0: a6bc aa3d 03d4 f6bc 1f5b bc3c 9a2d 993c
000000d0: 35f2 4c3c 8009 8b3c 6766 343d 3524 033d
000000e0: d9a3 61bd 77b3 a83d bf66 803d 8b1c 123d
000000f0: d63c fcba 1ec1 883d 0710 193d 2825 aabd
00000100: 8f15 8a3b 751f a3bd 3f79 843c cbc3 a9bd
00000110: 8317 a93d f3eb 6ebd 4366 53bd 06ac 433d
00000120: e19e 433d 6b94 17bd d483 483b 55e4 91bd
00000130: af7b b4ba bf1e 393d 638e a4bd 9d4a 99bd
00000140: c88a af3d 6b56 12bd b4e2 ff3b 494e 393d
0.08345801 -0.04178689 -0.072042264 -0.05546921 -0.07923997 0.02614005 0.05640362 0.08599143
0.02436083 0.0678327 0.03804646 0.08673167 -0.009055767 0.027601276 -0.082050756 -0.02987887
0.06749754 -0.04570007 -0.01614944 -0.07222922 -0.014162458 -0.088850684 -0.08388109 -0.028041378
-0.06791417 0.057404406 -0.081063874 0.058138926 -0.06929509 0.012949727 -0.034087043 -0.041891012
0.0012823013 0.022762029 -0.07417652 -0.08587241 -0.062610835 0.03495214 0.07200453 0.012977302
-0.08250309 -0.0010905992 0.0521875 0.027382096 0.0579062 0.045866415 -0.08161348 -0.07737943
0.08336763 -0.030130392 0.022992669 0.018698502 0.0125089185 0.016972303 0.04404297 0.03201695
-0.055087898 0.08237355 0.06269597 0.035671752 -0.0019244205 0.06677459 0.0373688 -0.08307868
0.0042139958 -0.07964984 0.016171096 -0.08289298 0.08256438 -0.058330487 -0.051611196 0.047771476
0.04775894 -0.037006777 0.0030596154 -0.07123629 -0.0013769771 0.045195337 -0.080349706 -0.074849345
0.08571392 -0.035726946 0.0078090075 0.045240674

fc3.weight f4 [10, 84]
00000000: 0c4c 88bd 9616 3b3d 9de5 64ba dd30 1a3d
00000010: 2c8f 1fbc b3db de3d e075 41bd 460a b1bc
00000020: 8cb2 913d 85b4 eb3c 1ba7 acbd 931f 3b3d
00000030: 49a6 473d 6c39 d4bd 8f25 15bd 11fd 8f3c
00000040: 4fd0 a6bd dec3 953d daa2 7abd 0db2 88bc
00000050: cfcb 9b3d 834d d0bd 8fa9 803d 61e7 263d
00000060: 1a90 2fbc fa69 c2bd da6b 703d 9f74 153d
00000070: 7f82 a5bd 6d2b 37bd 2fa1 ad3d 824c 82bd
00000080: 2183 233d 5d43 b2bc e883 7ebd 4b4a c1bd
00000090: 65ec 99bd 0602 72bc e5bc 143d 1251 df3d
000000a0: 8d90 9abc 78f9 1bbd 8f5f c43d d1c8 a1bd
000000b0: cf8b 56bc 7029 93bc 9336 723d d9b6 233d
000000c0: c3bc 8f3d 10a5 ab3c 3e63 8b3d 305f c53d
000000d0: b907 f33c e0e3 143d 4aa4 b73c 46eb e03c
000000e0: f72e 27bc 1d48 e5bc ef9e ddbc 41de afbc
000000f0: 2758 87bd f651 653d c9d6 f23c a40d 063d
00000100: 1831 64bc 59cc 9f3d 93cc cabd 366e b6bd
00000110: d4fe ddbd 7b47 b73d 2bc8 413d 5d0b c83d
00000120: c603 2f3d a1d1 af3d 7c2c babd fa3e 823d
00000130: 81c1 943d 00ca dabd fc06 82bc a05e 51bd
00000140: 6907 c73d 05a4 fcbc 4b1a c33d e8db 683d
00000150: f5e3 ce3d 0c39 68bc eccc b83d ad98 a4bb
00000160: 8950 f0bc 28e0 1f3d 3e04 623d 2e55 eebc
00000170: 93a8 a53b cec6 75bd 2e3d 633b 1561 663d
00000180: c226 a23d bbda edbc 8bc8 443d f7ea 5ebd
00000190: 7c87 afbc 94ef 783d 5814 a73b 331b b3bd
000001a0: 6b6d dd3d 90be d63d 4ab1 18bd 4dd0 88bd
000001b0: 4fab a93d 6b63 6ebd a7d1 3b3d bd88 9d3d
000001c0: b335 cbbc 8415 a83a 5625 8fbd fcdf 103c
000001d0: 2fbb 423d 9daf b23d 1a4f 633d f05b d5bb
000001e0: 1d7d 4b3d 6284 803d 8775 0ebd cae6 a63c
000001f0: a20c dfbd 1e07 8a3d 6f69 233d c0c5 d9bd
00000200: 2e9c b6bd 3868 853c b1d5 893d 60f8 6a3d
00000210: d1d5 823d 1845 803d 5d46 0f3d 064e 71bd
00000220: 1257 843d 2c96 cd3c 8548 d53d a14c 1f3d
00000230: 62c3 af3c ea95 b73c 45c5 b73c 2072 c13d
00000240: c63c cb3d 5516 16bd 79a2 1a3b 97aa 0cbd
00000250: dc20 ad3d 1445 85bd c362 b33d ae4f 95bd
00000260: 157f 1ebd ac7b c0bd 6507 543d d715 cfbd
00000270: 8ab0 d1bd 31d4 183d 0be7 3ebc 7d6d 753d
00000280: a347 cfbd c89d fabc 39dd 47bd 0278 a5bd
00000290: c67c c4bd 0dad 933b 69a7 a9bd 31b4 c4bd
000002a0: f90e b3bd 6e50 4cbd d01c 1f3d bb0b 9f3d
000002b0: 26cb 2ebd 6e47 ee3b bb27 43bd d339 8c3c
000002c0: 21fb a1bc a556 08bc fdba 4cbd 3fc5 58bd
000002d0: 5f8f 933d 4356 2a3b d6ed c73c b954 debd
000002e0: 242d 453d dc81 533d e113 96ba 65a1 d23d
000002f0: d5ee c8bd 5542 983d 5367 fd3c 7e94 7a3d
00000300: 2de7 acbd b6de c23c 25be 7ebd bee1 ddbd
00000310: 9bdf 0b3d 9526 d6bd ef37 acbd fe9f e83c
00000320: a640 dcbd 2310 c53d 6eab 65bd c67e 96bd
00000330: e310 fc3c c262 f83c 9978 58bc c20e 8bbd
00000340: a93b ddbd b38c 6fbd a79e b43d c5be dc3c
00000350: 15e9 b83d 2566 dc3c 33e9 dc3d 5daf c5bd
00000360: 3bec c3bd 9298 7a3a c2b7 baba b1a8 08b8
00000370: 4c49 d9bd 393e 7c3c 1c61 ddbd 789a 5b3d
00000380: 9e52 273d a111 76bd 7340 12bd 4724 52bd
00000390: 57ba a3bd d64e 8ebd 3244 b4bd 9867 043d
000003a0: 5927 18bc 88b9 eebc 1b2d 823d b88f dbbc
000003b0: 228e 653d 5581 d6bd afba b73c 41c6 d23d
000003c0: 0c2d aa3d 4f57 bfbd 2b4d 94bc b095 203c
000003d0: 2683 8cbc 9693 7cbd eb24 9d3d 3b1c d13c
000003e0: 9dd0 403d 5f94 5f3d 8e9b 973c a2ab 9bbc
000003f0: ff8d 36bd 6b36 bf3c 14f9 7abd 4487 a4bd
-0.0665513 0.045675837 -0.0008731725 0.037644256 -0.009738725 0.10881748 -0.047231555 -0.021611344
0.07114133 0.028772602 -0.0843031 0.04568441 0.048742566 -0.10362515 -0.03641277 0.017576726
-0.081452005 0.07312749 -0.061190464 -0.016686464 0.07607233 -0.10171034 0.06282341 0.040748004
-0.010715509 -0.0949287 0.058696605 0.03648817 -0.08081531 -0.04471915 0.08478009 -0.06362249
0.039919976 -0.021760637 -0.062137514 -0.094379984 -0.07515792 -0.01477099 0.036312956 0.10904135
-0.018867755 -0.03807971 0.09588539 -0.07899631 -0.013094856 -0.017964095 0.059134077 0.0399693
0.07018425 0.020952731 0.06806038 0.09637296 0.029666768 0.03635013 0.022417206 0.027455937
-0.010204068 -0.027988488 -0.027053325 -0.021468284 -0.066086106 0.055986367 0.029643433 0.032727852
-0.0139277205 0.07802648 -0.09902301 -0.0890774 -0.1083962 0.08949181 0.047310036 0.097677924
0.042728208 0.085849054 -0.09090516 0.06359668 0.072634704 -0.1068306 -0.015872471 -0.051115632
0.0971821 -0.03083993 0.09526499 0.056850344 0.10102073 -0.014173757 0.09023461 -0.005023083
-0.029335277 0.03903213 0.055179827 -0.029093351 0.005055496 -0.060004048 0.0034673917 0.05624493
0.07917549 -0.029034963 0.048042815 -0.0544233 -0.021426909 0.060775355 0.0050988607 -0.08745422
0.108118854 0.10485566 -0.03727845 -0.06680355 0.08284628 -0.05820028 0.045854237 0.076920964
-0.02480588 0.0012823795 -0.06989543 0.008842465 0.047541793 0.08724902 0.05549536 -0.006511204
0.049679864 0.0627525 -0.03478005 0.02037372 -0.108910814 0.06739639 0.03989547 -0.10633421
-0.08916508 0.016285047 0.067302115 0.057365775 0.063884385 0.062631786 0.034979213 -0.0589123
0.0646192 0.025096022 0.10414223 0.03889144 0.02145547 0.022410352 0.022432933 0.09445596
0.09923701 -0.03664239 0.0023595376 -0.034342375 0.08453533 -0.06507316 0.08759072 -0.07290588
-0.038695414 -0.093985885 0.051764864 -0.101115875 -0.1023875 0.037311736 -0.011651765 0.05991887
-0.101210855 -0.030592814 -0.04879496 -0.0807953 -0.09594111 0.0045067132 -0.08283884 -0.09604681
-0.0874309 -0.04988139 0.038845837 0.07765909 -0.042674206 0.0072716987 -0.04764531 0.017117416
-0.019773068 -0.008321439 -0.049983013 -0.052922484 0.0720508 0.0025991357 0.024405401 -0.10856003
0.048138753 0.051637515 -0.0011450016 0.1028469 -0.098111786 0.07434527 0.030933058 0.06117677
-0.08442531 0.023787837 -0.062193055 -0.108340725 0.034148794 -0.10456578 -0.08409106 0.028396603
-0.10754518 0.096222185 -0.05607169 -0.07348399 0.030769771 0.030320529 -0.0132123465 -0.06789924
-0.10802395 -0.05848379 0.08819323 0.026946435 0.09028832 0.026904175 0.10786667 -0.096525885
-0.09566542 0.0009559478 -0.0014245438 -3.2582033e-05 -0.106096834 0.015395694 -0.10809538 0.05361411
0.040850274 -0.060075406 -0.035705995 -0.051304128 -0.07994526 -0.069486305 -0.0880207 0.032325357
-0.009286725 -0.029141203 0.063562594 -0.026801929 0.05604375 -0.10473887 0.022427885 0.1029172
0.08309373 -0.09342825 -0.018103203 0.009801313 -0.01715238 -0.061664186 0.07673057 0.025526157
0.04707395 0.054584857 0.018506791 -0.01900274 -0.04456901 0.023341378 -0.061272696 -0.08033612

fc3.bias f4 [10]
00000000: 4a06 a13c b62c b1bd 69a3 9b3d 6b74 5fbd
00000010: 9746 52bc 9da8 10bc bfa3 843d ae9a 84bd
00000020: c442 3e3d 2a4c b5bc
0.01965632 -0.08651106 0.075995274 -0.054554384 -0.012834213 -0.008829263 0.064765446 -0.06474815
0.04645039 -0.022131044
